handwritten_digits_model.pth (torch, 409368 bytes, 4 tensors)

fc1.weight f4 [128, 784]
0	0x3ced5687	0.028971924
1	0x3c0533bc	0.00813001
2	0x3c8f1bf9	0.017469393
3	0xbb166211	-0.0022946636
4	0x3c0dd749	0.008657285
5	0xbcb57ad7	-0.022153301
6	0x3cff8123	0.031189507
7	0x3cdc97d5	0.026927868
8	0x3d002fed	0.031295706
9	0x3cd35a65	0.02579994
10	0x3cc43987	0.023953212
11	0x3d2bac4d	0.041912366
12	0xbc38bb05	-0.011275058
13	0xbc64d394	-0.01396646
14	0x39a8ea5e	0.00032218074
15	0xbcec59ba	-0.028851379
16	0x3d1e18a4	0.038597718
17	0xbccf4e45	-0.025305877
18	0x3b207015	0.0024480869
19	0xbcb53785	-0.0221212
20	0xbbd8e71e	-0.006619348
21	0x3ce83b83	0.02834869
22	0xbca847e3	-0.02054209
23	0x3ce1dd57	0.027571363
24	0xbc167da1	-0.009185226
25	0x3c834df8	0.01602839
26	0x3b7fd54f	0.0039037054
27	0xbce12c83	-0.027487045
28	0x3c9d4f32	0.019202802
29	0x3c5c6349	0.013451406
30	0xbc636a71	-0.013880358
31	0x3b82941c	0.003984941
32	0x3b6c14e1	0.0036023187
33	0x3c80e377	0.015733464
34	0x3d0b2258	0.0339683
35	0xbc43c0f5	-0.01194786
36	0x3c163765	0.0091684805
37	0x3bfebde4	0.0077741016
38	0x3d1dba57	0.038507786
39	0xbc414a51	-0.011797504
40	0x3c49d6aa	0.012319246
41	0x3cb35a82	0.021893743
42	0xbb2952fe	-0.002583682
43	0x3c0e1db2	0.008674072
44	0x3ba05f50	0.0048941746
45	0xbc05f09c	-0.0081750415
46	0xbcc4c2f5	-0.024018744
47	0x3c1b7fbf	0.009490906
48	0x3b63a82b	0.0034737687
49	0x3ca33920	0.0199247
50	0x3d12e04e	0.035858445
51	0x3cfde6e3	0.030993884
52	0x3d1ea5ed	0.038732458
53	0xbc43ec01	-0.011958123
54	0xbccd6ff1	-0.025077792
55	0x3b742fcd	0.0037259937
56	0xb984ff78	-0.0002536734
57	0x3a9af4dc	0.0011822241
58	0x3c45e5a9	0.012078681
59	0xbb84f381	-0.0040573482
60	0xbcebeb7a	-0.028798807
61	0xbcbff4a3	-0.023432082
62	0x362c9cb1	2.5721204e-06
63	0x3b0fdeed	0.0021952942
64	0x3cb4b8b3	0.022060728
65	0xbc00610a	-0.007835636
66	0x3d094b1e	0.033518903
67	0x3bb6762e	0.0055682873
68	0xbc800d58	-0.015631363
69	0x3cf5d93b	0.03001081
70	0x3cc234e7	0.023706866
71	0xbca71f92	-0.020400796
72	0x3cef0d0e	0.02918103
73	0x3b5ab779	0.0033373518
74	0xbb4b7e30	-0.0031050555
75	0x3c8b3fbe	0.016998168
76	0xbc294185	-0.0103305625
77	0xbca4d0d7	-0.020119114
78	0x3cf75415	0.03019146
79	0x3c19421f	0.009354143
80	0x3cff8371	0.031190606
81	0x3d2222ed	0.03958409
82	0xbc0ade69	-0.008475878
83	0xbc2044b8	-0.009782009
84	0xbc68f00f	-0.014217391
85	0x3c563924	0.013075147
86	0x3c7aaf61	0.015300603
87	0x3c425836	0.011861851
88	0xbbee3fce	-0.0072707897
89	0xbcd27279	-0.02568935
90	0x3bec4ada	0.0072110714
91	0xbc634281	-0.013870836
92	0xbcd5aec5	-0.026084313
93	0xbb4b39c4	-0.0031009773
94	0x3d040e6c	0.032240316
95	0xbc523829	-0.012830772
96	0xbc91f454	-0.0178167
97	0xbcbe6fcc	-0.023246668
98	0x3d11ebeb	0.03562538
99	0xbcd7e28c	-0.026353143
100	0xbb82510d	-0.003976947
101	0x3ce8d28b	0.028420707
102	0x3ce40cca	0.02783813
103	0xbc893a16	-0.01675133
104	0xbcaae8cf	-0.020862965
105	0x3d0af49f	0.033924695
106	0x3bed759a	0.007246685
107	0x3d0156db	0.031576972
108	0xb9630a31	-0.00021652204
109	0xbcba5493	-0.022745406
110	0x3d158168	0.036500365
111	0x3d01f30f	0.03172594
112	0x3cad2af5	0.021138648
113	0x3c5eb34e	0.013592554
114	0xb9907c10	-0.00027558254
115	0x3c5a8e72	0.013339626
116	0xbc92da57	-0.017926378
117	0xbc081b01	-0.0083072195
118	0xbc401aa7	-0.011725104
119	0xbba6b605	-0.0050876164
120	0x3c6fa455	0.014626582
121	0xba683a95	-0.0008858827
122	0xbcc90086	-0.024536382
123	0xba9db10b	-0.0012030912
124	0x3c9182f1	0.017762633
125	0x3d004768	0.0313181
126	0xb9dcacfe	-0.0004209056
127	0x3ce6da18	0.028180167
128	0x3cafbc69	0.021452146
129	0xbca277c9	-0.019832509
130	0x3c8460bf	0.016159413
131	0x3d119c29	0.035549317
132	0x3c0d9281	0.008640886
133	0xbca2cfd3	-0.019874489
134	0x3d1257f7	0.03572842
135	0x3beaa7bf	0.00716111
136	0xba75869b	-0.0009366066
137	0x3cd31925	0.025768826
138	0x3d09fbf0	0.033687532
139	0xbb481f43	-0.0030536212
140	0xbcedab7b	-0.029012432
141	0x3cbe27c3	0.02321232
142	0xbcb29e21	-0.021803917
143	0xbccb2515	-0.024797956
144	0x3cf85c11	0.030317338
145	0xb965f490	-0.00021930248
146	0x3c893b93	0.01675204
147	0x3b2e3504	0.0026581893
148	0x3c90fb1f	0.017697869
149	0xbc65ffb1	-0.014038012
150	0xbafa9663	-0.0019118305
151	0xbcb89577	-0.022532208
152	0xb8106706	-3.4428223e-05
153	0x3beaaf12	0.0071619833
154	0x3d17b4a6	0.037037514
155	0xbb69b938	-0.0035663377
156	0xbc1cd4b7	-0.0095722
157	0x3cc2b3b3	0.023767328
158	0x3b4cb0cf	0.0031233316
159	0x3c3e2d4c	0.011607479
160	0x3d37a3ad	0.044833828
161	0xbcd0b488	-0.025476709
162	0xbcb7d8f2	-0.022442315
163	0x3d267195	0.040635664
164	0xbc0ac9e1	-0.008470983
165	0x3d0a9b7a	0.03383968
166	0xbc8c4fc9	-0.017127888
167	0x3ce7dfeb	0.028305015
168	0x3d2a08bf	0.041512247
169	0x3d10f9fd	0.035394657
170	0x3d0dd27c	0.03462456
171	0x3c93baf5	0.018033484
172	0xbce39079	-0.02777885
173	0x3d0bf992	0.034173556
174	0x3cc16559	0.023607897
175	0xbc196a44	-0.009363715
176	0x3cb6b9cb	0.02230539
177	0xbc3d2fdf	-0.011547058
178	0xbb64f476	-0.003493575
179	0xbcad7ba8	-0.021177128
180	0x3cc6d760	0.02427262
181	0xbbc3bffb	-0.0059738136
182	0x3d0b3520	0.03398621
183	0x3cb85625	0.022502014
184	0x3d1459b5	0.036218364
185	0xb82cebb8	-4.1227526e-05
186	0x3c7a3d55	0.015273412
187	0x3ce02c78	0.027364954
188	0x3c9b8ecf	0.018988995
189	0xb9e8ab1f	-0.00044377983
190	0x3aefe09e	0.0018301194
191	0xbcd2b547	-0.025721205
192	0xbc9bf616	-0.019038241
193	0xbc0f0944	-0.008730236
194	0x3d0c103b	0.034195166
195	0x3cb93f9b	0.022613337
196	0xbccf7d49	-0.025328295
197	0xbce54a2f	-0.027989475
198	0x3d1d504e	0.038406663
199	0x3c8bc5d5	0.017062107
200	0x3c1031bc	0.00880092
201	0x3d2afc6e	0.041744642
202	0xbc0f96dc	-0.008763995
203	0xb8a6f3d6	-7.960915e-05
204	0x3d1ee222	0.038789876
205	0x3d025f08	0.03182891
206	0x3d155417	0.036457147
207	0x3cc76b2c	0.024343096
208	0xbc9d41c1	-0.019196393
209	0x3d0af784	0.033927456
210	0xbcdb3a8d	-0.026761318
211	0x3cfdfa8a	0.031003255
212	0xbc9d0d6e	-0.019171443
213	0x3a8ba856	0.0010655026
214	0x3cc631de	0.0241937
215	0x3d175754	0.036948517
216	0xbb34e7ab	-0.0027603905
217	0x3b9242da	0.0044635357
218	0xbca9c5d7	-0.02072422
219	0x3ce735d8	0.028223917
220	0x3d142afb	0.036173802
221	0x3d1fd2c2	0.039019354
222	0xb9971c88	-0.00028822222
223	0x3c082c66	0.008311367
224	0xba9b414a	-0.0011845019
225	0x3c02260e	0.007943643
226	0xbc959807	-0.018260969
227	0xbb9472a9	-0.00453027
228	0x3cafc224	0.021454878
229	0x3c4e778e	0.012601746
230	0x3c17b954	0.009260494
231	0x3bb5e3e6	0.0055508493
232	0x3c370165	0.011169766
233	0x3d3a6f45	0.04551627
234	0x3d23ed6a	0.040021338
235	0xbc9c87de	-0.019107755
236	0xbccad665	-0.024760434
237	0xbcb44ce3	-0.022009319
238	0xbd1f5750	-0.038901627
239	0x3c68eaad	0.014216107
240	0x3c6f710f	0.014614358
241	0x3bb93926	0.0056525646
242	0xbc4baec0	-0.0124318
243	0xbc598b14	-0.013277788
244	0x3ca872af	0.020562498
245	0x3a2962d4	0.0006461565
246	0xbbc4e8c7	-0.0060091945
247	0xbc04ab16	-0.008097431
248	0x3ca933f7	0.020654662
249	0xbbbf99e3	-0.005847202
250	0xbc255ec8	-0.010093398
251	0x3ca4c579	0.020113694
252	0x3d1d7f6c	0.038451597
253	0xbc9d5f95	-0.019210616
254	0xbcac549c	-0.021036439
255	0x3c543894	0.012952942

fc1.bias f4 [128]
0	0x3ba36c9b	0.004987312
1	0xbc3c4800	-0.0114917755
2	0x3d33f167	0.04393139
3	0x3c6ae68f	0.014337196
4	0xbb83e42a	-0.004025002
5	0xbd142e84	-0.036177173
6	0xbc86f358	-0.016473457
7	0x3a474bdc	0.00076025515
8	0x3ca1810d	0.019714857
9	0x3be8dc6a	0.0071063535
10	0xbcafbf00	-0.02145338
11	0x3cfb9690	0.030711442
12	0x3d57706e	0.052597456
13	0x3c53b877	0.012922398
14	0x3be3e207	0.006954435
15	0xbbb52b4c	-0.005528843
16	0x3b49577e	0.0030722315
17	0x3d85693c	0.065142125
18	0x3c46eabe	0.012140928
19	0x3c4394ae	0.0119373035
20	0xbca0b645	-0.019618163
21	0xbd0bb005	-0.034103412
22	0xbc878e40	-0.016547322
23	0x3a8a51c7	0.0010552936
24	0xbcb7d69e	-0.022441205
25	0xbaae1136	-0.0013280276
26	0xbd352233	-0.044222068
27	0xbd23e992	-0.040017672
28	0xbb41d8b6	-0.0029578633
29	0x3d04ea0c	0.032449767
30	0xbcd449ad	-0.025914038
31	0x3cb2786d	0.02178594
32	0x3cae1f0f	0.021255044
33	0x3ca6980f	0.020336179
34	0xbbf0c067	-0.007347155
35	0x3c10ff1c	0.008849885
36	0xbbcdb3e7	-0.0062775495
37	0xbcc6e685	-0.024279842
38	0xbb9d4dd5	-0.004800538
39	0x3d094e77	0.033522096
40	0xbd0763d0	-0.033054173
41	0xbbd5f067	-0.0065289023
42	0x3ce50447	0.027956141
43	0x3cbbd635	0.02292929
44	0xbca989a3	-0.020695513
45	0x3bef9684	0.007311644
46	0xbcef3b48	-0.029203072
47	0xb9c51fa4	-0.00037598342
48	0xbb228de9	-0.0024803823
49	0xbb7926ad	-0.0038017437
50	0x3ca48a21	0.020085396
51	0x3b1d8246	0.0024033948
52	0xbc97dee9	-0.018538909
53	0x3cb637af	0.022243349
54	0xbd26d420	-0.040729642
55	0xbcd075a8	-0.025446728
56	0xbc6fff97	-0.01464834
57	0xbba4403a	-0.005012539
58	0xbd01c190	-0.031678736
59	0x3adf2afd	0.0017026361
60	0xbced8a71	-0.028996678
61	0x3c8a8f18	0.016913936
62	0xbc81e649	-0.015856879
63	0xbc067ef6	-0.008208981
64	0x3ca55bd1	0.020185383
65	0xbc882914	-0.01662115
66	0xbcd07b40	-0.025449395
67	0xbd349ec6	-0.04409673
68	0xbcdf0dcb	-0.027228257
69	0xbc5adda1	-0.0133585045
70	0xbbac9afa	-0.005267498
71	0x3c8d402c	0.017242514
72	0xbcb9d1be	-0.02268302
73	0xbcdb0724	-0.026736803
74	0x3b862235	0.0040934333
75	0x3ca0370d	0.0195575
76	0x3d449030	0.04798907
77	0x3d2639fc	0.040582642
78	0x3cb6c1cc	0.022309206
79	0xbcf9eb2b	-0.030507645
80	0xbc690959	-0.01422342
81	0xbc26abb4	-0.010172773
82	0x3c8ca7e8	0.017169908
83	0x3b99d5ea	0.00469469
84	0xbcbdffbb	-0.02319323
85	0xbd696b59	-0.05698714
86	0x3a8d39a6	0.0010774627
87	0xbcac844c	-0.021059178
88	0x3bc2c6cb	0.005944108
89	0x3aed83c5	0.0018120935
90	0xbca3a46a	-0.01997586
91	0xbc5f173d	-0.01361638
92	0xbd215341	-0.039386038
93	0x3cfc82f1	0.030824156
94	0x3caca43a	0.021074403
95	0x3ca65ef3	0.020308947
96	0x3aa2523f	0.001238413
97	0x3c1dcf4e	0.009631945
98	0x3cc6158f	0.024180202
99	0x3c6310bb	0.013858969
100	0xbd14916b	-0.036271494
101	0x3d35938f	0.044330176
102	0x3c59ef28	0.013301648
103	0x3c6dcc8e	0.014514102
104	0xbd13b16e	-0.036057882
105	0xbcf5ac08	-0.029989257
106	0x3c85c5ee	0.016329732
107	0x3ca6fc6f	0.020384042
108	0x3ca2cca0	0.019872963
109	0xbc5632f6	-0.0130736735
110	0x3be6e6f9	0.007046577
111	0xbca6f5ae	-0.020380821
112	0x3c5e8155	0.01358064
113	0x3cc4c23c	0.0240184
114	0xbc336921	-0.010950358
115	0xbc2dd543	-0.010609928
116	0x3cbc6c94	0.023000993
117	0xbcce6356	-0.025193851
118	0xbd0e71fd	-0.034776676
119	0xbce591cd	-0.028023625
120	0x3d069165	0.032853503
121	0xbc8ee35a	-0.017442394
122	0x3aad5cbf	0.0013226493
123	0xbbff432a	-0.007789989
124	0xbbb882ce	-0.0056308275
125	0xbcb24ade	-0.021764215
126	0xbbc4d1d9	-0.006006461
127	0x3c3c4dc0	0.011493146

fc2.weight f4 [10, 128]
0	0x3dac62e0	0.084172964
1	0x3d42386c	0.04741709
2	0x3dfe1ac5	0.1240745
3	0x3d36408c	0.04449515
4	0xbe1f5ec8	-0.155635
5	0x3d31dacb	0.043421548
6	0xbe4fc6fc	-0.2029075
7	0x3da4a2d9	0.08038873
8	0xbe8e68c4	-0.27814305
9	0xbd8cf745	-0.068831004
10	0x3d87499f	0.06605839
11	0xbe04415b	-0.12915556
12	0xbdb461fe	-0.08807753
13	0xbd169296	-0.03676089
14	0xbe221604	-0.15828711
15	0xbe2fd2eb	-0.17170303
16	0xbc054826	-0.008134877
17	0x3de1de36	0.110287115
18	0xbd974344	-0.07385877
19	0x3d3b49c7	0.045724656
20	0xbea1e9a7	-0.31623575
21	0x3df9e2d1	0.12201465
22	0x3dbfb980	0.09361553
23	0xbcf72376	-0.030168276
24	0xbe483653	-0.19551973
25	0xbc8bd48f	-0.01706913
26	0xbe980263	-0.2968932
27	0xbe960a4f	-0.2930474
28	0xbd6b9959	-0.05751929
29	0xbda59b7c	-0.08086297
30	0xbe004abb	-0.12528507
31	0xbb65f09b	-0.003508604
32	0x3d9adc57	0.07561558
33	0x3c105bf8	0.00881099
34	0x3e087b58	0.13328302
35	0x3af1a935	0.0018437268
36	0x3d75664b	0.059912007
37	0xbdb59efc	-0.088682145
38	0xbe4a2934	-0.1974228
39	0xbdae7a7d	-0.085194565
40	0xbee8ba2f	-0.45454547
41	0xbcf422ad	-0.029801691
42	0xbc4a9141	-0.012363733
43	0xbe36fb69	-0.17869343
44	0xbd9076e6	-0.07053928
45	0xbebbd8a9	-0.36688736
46	0xbce64779	-0.028110253
47	0x3cf01c2b	0.029310307
48	0x3ca0dcd3	0.019636547
49	0xbd99c78b	-0.07508763
50	0x3da53e24	0.08068493
51	0x3c65c941	0.014025033
52	0x3c5b05f9	0.013368123
53	0x3e628e7d	0.22124667
54	0x3d938a87	0.07204156
55	0x3e4e4382	0.2014294
56	0x3e02eb92	0.12785175
57	0x3d5ddfe9	0.054168615
58	0xbcc0e2db	-0.023545673
59	0x3e30a26c	0.17249459
60	0x3d8c6540	0.068552494
61	0x3d5e16cb	0.054220956
62	0xbe940d39	-0.28916338
63	0x3cb0be84	0.02157522
64	0x3d7e3f03	0.06207181
65	0xbe07b845	-0.13253887
66	0xbd8861fd	-0.06659315
67	0x3caa11c8	0.020760432
68	0xbe01f2b2	-0.12690237
69	0x3d6a22cc	0.05716209
70	0xbda22924	-0.07918003
71	0x3cdc3562	0.026880924
72	0xbe039af2	-0.12852076
73	0x3dc02e19	0.093837924
74	0x3d0ae9ac	0.033914253
75	0x3daf7cc6	0.085687205
76	0x3d5717a2	0.052512772
77	0xbe5ffd4a	-0.21873966
78	0x3d88e544	0.06684354
79	0xbe4f5d7e	-0.20250508
80	0x3c1cfd34	0.009581853
81	0xbd90f2ad	-0.07077537
82	0x3d1c06ad	0.038092304
83	0x3de5e334	0.11224976
84	0x3ca76c73	0.020437455
85	0xbe213484	-0.1574269
86	0xbe8d740f	-0.27627608
87	0x3d5fdb15	0.054652292
88	0xbf1e32d4	-0.6179631
89	0x3d833d7a	0.0640821
90	0x3e38bc37	0.18040548
91	0x3cc4e25f	0.024033723
92	0x3e47c7b7	0.19509779
93	0x3d9c0a23	0.07619121
94	0xbd8132ee	-0.06308542
95	0xbda56a79	-0.08076949
96	0x3e2cfd05	0.16893394
97	0x3d0c9e22	0.034330495
98	0xbcb0db11	-0.021588834
99	0x3d7e4671	0.062078897
100	0xbd38482d	-0.044990707
101	0x3dc24d38	0.094873846
102	0x3d1fef60	0.039046645
103	0xbda00dd1	-0.07815135
104	0xbc15aa8c	-0.0091349
105	0x3e4d9c09	0.20079054
106	0xbe3a14f9	-0.18172063
107	0xbd75caa3	-0.060007703
108	0x3da7696c	0.081744045
109	0xbcfadd89	-0.030623214
110	0x3d35eff7	0.0444183
111	0x3ab4bc0d	0.0013788954
112	0xbeeaff6b	-0.45897993
113	0xbd0e5385	-0.03474762
114	0x3dbec108	0.093141615
115	0x3d7ff1c3	0.06248642
116	0x3df60a6d	0.12013707
117	0x3e71a56f	0.23598264
118	0x3c9a95fb	0.018870344
119	0xbe1221f1	-0.1427076
120	0x3e32f5b9	0.17476548
121	0xbdef7d44	-0.116938144
122	0x3e58054e	0.21095774
123	0x3e6a406c	0.22876137
124	0xbe36b615	-0.17842896
125	0x3e19b293	0.15009527
126	0xbd222918	-0.03958997
127	0x3da02330	0.078192115
128	0x3c252cbc	0.010081466
129	0x3cdf38db	0.02724879
130	0xbe6f2dbc	-0.2335729
131	0x3d861099	0.065461345
132	0xbd622433	-0.055210304
133	0xbd512a73	-0.051065873
134	0xbd621071	-0.05519146
135	0xbcf01c72	-0.029310439
136	0xbe0dba7a	-0.13840666
137	0x3a0f9c94	0.0005478349
138	0xbe3237b3	-0.1740406
139	0xbd74b40c	-0.05974202
140	0xbcf9dff9	-0.030502306
141	0x3e1091f1	0.14118172
142	0xbe01a7fb	-0.12661736
143	0xbdde85b6	-0.10865347
144	0x3d9b7f70	0.07592666
145	0xbd2423a3	-0.04007305
146	0xbcc8409d	-0.024444873
147	0xbe183962	-0.1486564
148	0x3c906ab9	0.017629014
149	0xbec90370	-0.39260435
150	0xbe2d34d6	-0.16914687
151	0xbcc2f3d1	-0.023797901
152	0x3dbf0396	0.09326856
153	0x3d88f3af	0.06687104
154	0x3de210e6	0.11038379
155	0x3d8de0af	0.069276206
156	0x3d53a950	0.05167514
157	0xbdc40002	-0.09570314
158	0x3e23355a	0.15938321
159	0x3e0dc118	0.1384319
160	0xbe0a3e16	-0.13500246
161	0xbd1d91a4	-0.03846897
162	0xbec8f679	-0.39250544
163	0xbd07dc50	-0.03316909
164	0x3d229602	0.03969384
165	0xbc2697ce	-0.010168029
166	0x3d4f6e49	0.050642285
167	0xbc122848	-0.008920737
168	0x3e014923	0.12625556
169	0x3ca3d143	0.019997245
170	0xbd4738a2	-0.048637994
171	0x3d911d19	0.07085628
172	0x3bdf0513	0.006806025
173	0x3db8c8ee	0.09022699
174	0x3d01e011	0.031707827
175	0xbd934145	-0.071901836
176	0x3d988f8c	0.074492544
177	0x3d163e2d	0.03668039
178	0xbc3a9575	-0.011388172
179	0x3d3d59a3	0.046228062
180	0x3d0a7fac	0.033813164
181	0xbcdd98e8	-0.02705045
182	0xbd5bdb98	-0.053676218
183	0xbe943bd1	-0.28951886
184	0xbe731b3f	-0.23740862
185	0x3d0f0a09	0.03492168
186	0xbd97c3da	-0.074104026
187	0xbe09a068	-0.13440096
188	0xbdbfbc7d	-0.09362123
189	0xbd9e3979	-0.07725806
190	0x3ddf744b	0.10910853
191	0x3da134ef	0.078714244
192	0xbcf7e9d5	-0.030262867
193	0x3df7878e	0.12086402
194	0x3d58af7a	0.052901722
195	0xbd9d0b06	-0.07668118
196	0xbe15a097	-0.14612041
197	0x3d0e5f45	0.034758825
198	0xbd674fe7	-0.056472685
199	0x3bf88b22	0.0075849453
200	0xbd7a2eed	-0.06107991
201	0xbef5965d	-0.4796628
202	0x3d2b6a7c	0.0418496
203	0x3d92b475	0.07163326
204	0xbe52faf1	-0.20603539
205	0x3d882dca	0.066493586
206	0x3dd71fd5	0.10504118
207	0x3dc1bc5b	0.09459754
208	0xbd4a23eb	-0.04935066
209	0x3e234b91	0.15946795
210	0x3cd930f4	0.0265126
211	0xbda929ad	-0.08259902
212	0xbd809adb	-0.06279536
213	0x3e177004	0.14788824
214	0x3ddea2bd	0.108708836
215	0xbda85d50	-0.08220923
216	0xbeac57a7	-0.33660623
217	0x3d8b6a05	0.06807331
218	0xbdd33466	-0.103127286
219	0x3d8d6848	0.06904656
220	0xbe20cf9a	-0.15704194
221	0xbe686658	-0.22695291
222	0x3daf8ce3	0.08571794
223	0x3e193470	0.1496141
224	0x3dcf3157	0.10116833
225	0xbc26b7a4	-0.010175619
226	0xbed16819	-0.40899733
227	0xbd8e01e6	-0.06933956
228	0xbd9bb4e8	-0.076028645
229	0xbe21244e	-0.15736505
230	0x3e0d4d31	0.13798977
231	0xbd8d29d6	-0.06892745
232	0x3eabac98	0.33530116
233	0x3d96eb5b	0.07369109
234	0x3d40329b	0.04692326
235	0x3da56aa1	0.080769785
236	0x3d7a585c	0.061119422
237	0x3da5082a	0.08058198
238	0xbd96983d	-0.07353256
239	0xbd770780	-0.060309887
240	0x3e178ffb	0.14801018
241	0xbdb68f2c	-0.089140266
242	0xbbef7b36	-0.007308389
243	0xbdbc247c	-0.09186646
244	0x3e0d50ce	0.13800356
245	0xbddd2ada	-0.10799189
246	0x3c1c42a0	0.009537369
247	0xbda35295	-0.07974736
248	0x3d83228a	0.06403072
249	0x3e1dc72a	0.15408006
250	0xbe671e58	-0.22570169
251	0x3d4d8762	0.05017794
252	0x3ddf8ef2	0.109159365
253	0xbec48895	-0.38385454
254	0xbce40774	-0.027835585
255	0x3dc0eab4	0.09419766

fc2.bias f4 [10]
0	0x3dc726b8	0.09724182
1	0xbda777f7	-0.08177178
2	0x3da4f06d	0.0805367
3	0xbb86929e	-0.0041068336
4	0xbd450d62	-0.048108466
5	0x3d6448e8	0.05573359
6	0xbcb4a754	-0.022052445
7	0xbdcdb3bf	-0.100440495
8	0x3daa7d16	0.083246395
9	0x3da1e634	0.07905236
